dqn.pt (torch, 45799 bytes, 7 tensors)

fc.0.weight f4 [128, 3]
000000 7c 30 e8 be d2 7d 50 3d 1e 7e a5 be 7d 52 d9 be
       -0.4534949 0.05090124 -0.32322782 -0.42445746
000010 bb 7e ad 3e bc 1f b8 bc a0 bc 9a be 47 7a c7 3e
       0.3388575 -0.02247607 -0.30222034 0.38960478
000020 3d 01 45 bb 53 dc 92 3e 00 84 0b bd 26 ab 99 bb
       -0.0030060553 0.2868372 -0.034061432 -0.004689592
000030 e2 58 90 be 67 ec 1a be 13 6a ea 3d 7d 09 f2 3d
       -0.28192812 -0.15129243 0.11446013 0.11818216
000040 20 84 b4 bd f0 9d 67 bd f3 61 b3 3d b9 7c fc 3d
       -0.08814263 -0.056547105 0.08758917 0.123284765
000050 0f 2d b0 be 72 54 9d 3e a0 12 90 be 53 53 9a 3e
       -0.34409377 0.3072849 -0.2813921 0.30141696
000060 5a 9f 9e be 97 7f 44 3f 1e 4a 9a 3e c3 a6 e1 be
       -0.3098095 0.76757187 0.30134672 -0.44072542
000070 08 99 5b be ad eb f6 3d a6 6a bc be 41 67 65 be
       -0.21445096 0.1205667 -0.36800116 -0.2240267
000080 66 57 2c be 04 d8 71 3e ac 8d ff be 08 60 38 3e
       -0.16830215 0.2361756 -0.49912775 0.18005383
000090 56 f0 ad be 2b 42 db be e5 bd 7a 3e b6 29 3c bf
       -0.33972424 -0.4282392 0.24486502 -0.73501146
0000a0 8b 5a e6 be 79 94 b8 3e 3e e3 b6 be b2 eb 28 be
       -0.44990954 0.36050776 -0.35720247 -0.1649616
0000b0 40 05 c2 3c e3 43 e2 bc 4f d1 c1 3e 03 38 b2 3c
       0.023684144 -0.027620262 0.37855002 0.021755224
0000c0 01 21 a7 3e 92 54 b6 3e 10 2a 85 be 15 ec 13 be
       0.32642367 0.35611397 -0.26008654 -0.14445527
0000d0 2c 00 02 be f6 5f ae 3e 6d f1 84 be 50 7d 20 bd
       -0.12695378 0.34057587 -0.25965443 -0.039182007
0000e0 9d f9 cb be 0b 89 80 be 82 27 00 be 17 eb f0 bd
       -0.39838877 -0.25104555 -0.12515071 -0.1176359
0000f0 04 d5 09 bf 52 51 94 be 84 f2 28 3f a6 d2 ab 3e
       -0.5384066 -0.28968292 0.6599505 0.3355915
000100 89 46 0f 3e 85 78 0f be dd 06 21 bf f7 93 da 3e
       0.13991751 -0.14010818 -0.629011 0.42691013
000110 b4 7b 4a bd b7 a9 be 3e 92 dc a3 be 0e 3b 20 bf
       -0.04943438 0.37238857 -0.3200422 -0.6259011
000120 76 36 6d 3e a9 1b ed be 3c 9a e3 3e 3c 9f c5 bb
       0.23165306 -0.46310166 0.4445361 -0.006030945
000130 cb 94 66 3e bc c5 6c be 2c d5 06 be 4e 06 c0 be
       0.22517698 -0.23122305 -0.13167256 -0.3750481
000140 9d b8 a0 be fa 68 06 3f f0 dd 3f bf b3 37 0d 3f
       -0.3139085 0.5250393 -0.74948025 0.55163115
000150 c6 9b b6 bd bd 1a 37 3e 04 b3 8c be de 7b 0f 3f
       -0.0891643 0.17881294 -0.27480328 0.5604838
000160 cb 22 8d 3e 5f bf 60 bf b6 f2 cb bd 20 0a 66 be
       0.27565607 -0.8779201 -0.09958403 -0.224648
000170 b0 31 e5 be 0b 9d f7 be 42 cc fe be dd 85 ef be
       -0.4476447 -0.48362002 -0.4976521 -0.46781817
000180 cd 52 c4 3e 0e 32 b5 be 12 b2 b8 3e 00 e0 d1 38
       0.38344422 -0.3538975 0.36073357 0.0001000762
000190 52 af 39 be 78 99 cf be a2 a2 19 3f ba 17 9d 3e
       -0.18133286 -0.40546775 0.6001378 0.30682164
0001a0 e3 db 87 bf 83 93 55 bd f7 e5 2d bf 11 f1 32 3f
       -1.0613979 -0.05214263 -0.67929024 0.6989909
0001b0 17 6e 11 bf 9d a8 4f bd e1 fe 1b bc 8c c9 33 bf
       -0.5680861 -0.05069791 -0.009521217 -0.7022941
0001c0 2a 30 27 3f 3c 59 93 be 85 87 de be 46 7a fe 3e
       0.6530787 -0.28779018 -0.43462768 0.49702662
0001d0 e3 58 23 bf 60 61 85 bf c8 02 12 be 89 1e 1b 3f
       -0.63807505 -1.0420341 -0.14258873 0.6059347
0001e0 42 e2 78 be c2 9e c6 3e 68 37 58 bf d9 a9 ae be
       -0.2430506 0.38792998 -0.84459543 -0.34113958
0001f0 18 8c dc be 28 f6 0a bf bf 36 27 be 09 51 bd bd
       -0.43075633 -0.54281855 -0.16329478 -0.09243972
000200 3b 24 32 be 60 96 d6 be 54 26 6c 3e 89 6a 91 3d
       -0.17396633 -0.41911602 0.23061496 0.07100398
000210 c5 c6 10 bf 30 6e 92 be 60 84 10 3d 01 54 2a 3f
       -0.565533 -0.2859969 0.035282493 0.6653443
000220 29 9c ba 3e 29 cd 70 bf 9e 12 de be d0 bf 93 bd
       0.36447266 -0.9406305 -0.4337358 -0.0721432
000230 c5 10 08 bf 1c 22 bf be 50 8f fb 3e cc 95 ab bd
       -0.5315059 -0.3733071 0.49132776 -0.08378181
000240 40 39 f5 be 5f a5 f7 be 39 e6 f1 3c 2f 49 8b bd
       -0.4789524 -0.48368356 0.029528724 -0.06801068
000250 39 be 4b 3e 69 27 88 be f9 41 e3 3d c7 d2 05 3d
       0.19896783 -0.26592568 0.11096568 0.032671716
000260 00 c4 8e be f6 a8 58 3e 8f ef 83 3e 6f db c8 be
       -0.2788391 0.21158203 0.25768706 -0.39229915
000270 8c 55 6d bd 80 42 b0 be 4d 2b b0 3e 3f 4f a0 be
       -0.057942912 -0.34425735 0.34408036 -0.3131046
000280 f6 4f 7c be 70 a7 2f 3d 91 39 0f 3f ef c4 38 3e
       -0.24639878 0.04288429 0.55947214 0.18043874
000290 04 08 93 3e 1f 70 e4 be be 52 00 3f 71 18 3e be
       0.28717053 -0.44616792 0.50126255 -0.18564011
0002a0 6f 32 1a be b7 54 b3 bd cf c9 90 be be 06 17 bf
       -0.15058301 -0.087563924 -0.28278968 -0.5899466
0002b0 3a 0d 79 be 12 69 b1 3e db 7a 2c 3e c2 fa 91 be
       -0.24321452 0.34650475 0.1684374 -0.28511626
0002c0 66 9f 0e be 3f 6c 55 be 18 c4 2c bf 83 dd b3 3e
       -0.13927993 -0.20842074 -0.67486715 0.35129938
0002d0 87 ec 20 bf b4 30 a0 3e 3c d9 20 bf 68 bb 6b be
       -0.6286091 0.31287158 -0.62831473 -0.23020709
0002e0 18 aa 87 bd 00 0a ef ba 56 73 13 3d 84 2c 80 3d
       -0.0662424 -0.0018237233 0.035998665 0.06258491
0002f0 8d 6f b2 bb 53 d8 b9 3e a0 54 fc bb 7d 35 3b bf
       -0.005445427 0.36297855 -0.007700518 -0.7312849
000300 c1 01 40 3f 08 cc 04 bf 39 60 98 be ba 15 e8 3e
       0.75002676 -0.51873827 -0.29760912 0.45329076
000310 05 34 fc 3e 48 6d b8 be 49 43 0f bf 6b a3 8c 3e
       0.49258438 -0.36020875 -0.55962044 0.27468428
000320 6e de d0 3c f4 32 05 be 4c c2 e9 3e a9 c0 58 be
       0.025496688 -0.13007718 0.4565605 -0.21167244
000330 42 66 82 be de ec 66 3e d5 be c7 be 1f b7 13 bf
       -0.25468642 0.22551295 -0.3901278 -0.57701296
000340 95 9f be be 01 84 a8 be 85 b5 31 3f d5 47 8b bf
       -0.37231126 -0.3291321 0.694176 -1.0881296
000350 7d 4f cf be 4a fd 58 be 6a 7a be be 48 5e 0c bf
       -0.40490332 -0.21190372 -0.3720277 -0.5483136
000360 6f 77 d4 3e 65 8d f3 be 96 ee b9 be 01 7c d5 3e
       0.4149737 -0.47568813 -0.3631484 0.4169617
000370 42 ab 58 3e 88 c8 2c bf d6 7a 40 bd 7a ac 2e be
       0.2115908 -0.67493486 -0.046992145 -0.17057982
000380 92 c3 60 bd 57 a7 3f 3f 81 81 16 3e ef 1a 07 bf
       -0.05487401 0.74864715 0.1469784 -0.5277547
000390 40 88 58 bc 80 17 10 be 58 2d f4 be b8 07 49 3f
       -0.013216078 -0.14071465 -0.47690845 0.785274
0003a0 fe e1 5b be fe 62 d8 be 9b af 4e 3f c2 2b 1b bf
       -0.21472928 -0.42263025 0.807367 -0.60613644
0003b0 c9 69 4c be 10 16 43 3f c8 4f 09 bf 7e 28 86 be
       -0.19962229 0.7620554 -0.5363736 -0.26202768
0003c0 18 ed 7b be f2 cf 30 3f 82 81 9e be 33 41 a2 bd
       -0.24602163 0.690673 -0.30958182 -0.07922592
0003d0 2b 54 72 bf 8b b0 61 3f 69 5a 2a be 3c f8 22 be
       -0.9465968 0.8816001 -0.16636051 -0.15915006
0003e0 3a 89 97 3e 77 ef b5 3e e0 28 38 bf 94 53 02 bf
       0.29596883 0.3553426 -0.7193737 -0.5090878
0003f0 67 a2 65 3e 83 fd de 3c 01 f6 8b be 3c f0 29 bf
       0.22425233 0.027220493 -0.27336124 -0.66382194

fc.0.bias f4 [128]
000000 69 91 50 be 16 51 e6 3e 56 5c 66 3e 36 2b 4d be
       -0.2036797 0.4498374 0.22496161 -0.20036015
000010 e6 a5 44 3f 91 46 e7 3e a2 2a b0 3e 15 a4 cd be
       0.7681564 0.45171025 0.34407526 -0.40164247
000020 37 0f 6d bf 86 25 3b 3d 14 82 60 3f f2 10 9c 3e
       -0.9260134 0.045690082 0.87698483 0.30481678
000030 92 de 30 3f 89 f0 ea 3e 92 6e a1 be d9 28 15 bf
       0.69089615 0.4588664 -0.3152967 -0.58265454
000040 03 36 0d bf 0c 8c 9b be 48 8a fc bd af 37 1a 3f
       -0.5516054 -0.30380285 -0.123310626 0.60241216
000050 e0 93 a0 bf 36 f3 39 bf be 46 1a bf e6 ba 06 3e
       -1.2545128 -0.72636735 -0.60264194 0.13157234
000060 a6 9a 58 3e c9 aa 34 3f e2 6d e1 be 9c 0c 82 bf
       0.21152744 0.705731 -0.44029146 -1.0160098
000070 4f 8b e2 3e 57 cd 53 be 7b 6d 3c 3e 24 5b 0c bf
       0.4424691 -0.206838 0.18401138 -0.5482657
000080 0c 75 e4 be f0 ca 2e be 26 58 19 be e3 d3 74 bd
       -0.4462055 -0.17069602 -0.14975032 -0.059772383
000090 de e8 e4 3d 7b f7 07 bf 57 0a 96 3e cd 53 88 3e
       0.111772284 -0.53112 0.29304764 0.26626435
0000a0 90 14 87 3e df b8 e8 be aa b9 59 3f ce 09 9b 3e
       0.26382875 -0.45453545 0.85048926 0.30280918
0000b0 8c 29 0f bf 00 c1 b6 bf b0 3a aa bd d0 16 05 3e
       -0.5592277 -1.4277649 -0.08311975 0.12996984
0000c0 8e 1a ff 3d d2 c6 c0 3e 3b 80 5a 3f 20 e5 78 3d
       0.12456237 0.37651688 0.85351914 0.060765386
0000d0 d1 30 af be 1a 3d ca be a8 3e 92 bf e6 de 75 be
       -0.3421693 -0.39499742 -1.1425371 -0.2401081
0000e0 e3 12 57 3f f0 39 53 be 92 25 66 3e 5b b4 76 3e
       0.84013194 -0.2062757 0.2247527 0.24092238
0000f0 ce 5e 21 bf 50 04 ae be 94 fd 08 bd 68 df ab be
       -0.63035285 -0.33987665 -0.033444956 -0.33568883
000100 10 c0 30 3f 4b a7 44 bf 17 fb 05 3f bd 38 b5 be
       0.69043064 -0.7681777 0.5233626 -0.3539485
000110 fd 0f a2 3e c1 db a8 3f cf b9 f8 3e 31 0c 84 be
       0.31652823 1.3192064 0.4857926 -0.2579055
000120 31 30 c7 be 81 6e 5c bf ee e0 5b 3f 38 17 67 be
       -0.38903955 -0.86106116 0.8589009 -0.22567451
000130 50 69 61 bd 98 d1 02 be 8f 76 97 be 65 ef 1a 3f
       -0.055032074 -0.12775266 -0.2958264 0.6052154
000140 f3 1a 07 bf c4 19 3b 3e c8 3b f5 bd f2 b6 d1 3d
       -0.52775496 0.18271548 -0.11974293 0.10239972
000150 5a f1 14 3f 23 c6 de 3e 66 9a d2 be 73 5e 0a 3f
       0.58180773 0.4351054 -0.41133422 0.5405037
000160 56 bd af 3e f2 71 ba be 59 24 5f be fb 01 36 be
       0.3432414 -0.36415058 -0.2179121 -0.17774193
000170 51 5b 10 bf 98 0e e1 be 45 84 ad be 8a 0e 1e bf
       -0.5638934 -0.43956447 -0.33889976 -0.61740935
000180 14 79 35 3f 4d c6 a4 bd af cd 85 3e cd 88 74 bf
       0.70887876 -0.08045635 0.26133487 -0.9552124
000190 d4 23 fe bd 7f de f2 be 08 f1 95 bc 15 ae 6f 3e
       -0.124091774 -0.47435376 -0.01830341 0.23406251
0001a0 32 ed 4f bf c9 e3 55 3e 21 16 35 3e 53 a6 0d bf
       -0.81221306 0.20887674 0.17684223 -0.55331916
0001b0 48 3a 4f 3e f3 a7 22 bf d9 3b 7d be bb 5b 72 b8
       0.20237076 -0.6353752 -0.24729861 -5.7782727e-05
0001c0 ce 96 0a be 10 0a 11 bd db 7e 2c bf 93 20 90 be
       -0.1353409 -0.035409987 -0.67381066 -0.28149852
0001d0 7f 93 61 3e f6 e2 88 bf 08 40 18 be eb a2 5d 3f
       0.22028922 -1.0694263 -0.14868176 0.8657672
0001e0 18 43 b4 be 66 cd 82 bc 47 d6 00 bf e8 2b 94 bf
       -0.35207438 -0.015967082 -0.5032696 -1.1575899
0001f0 fc 21 cd be 53 7b 26 bf bf 57 16 3f c3 86 0c bf
       -0.4006499 -0.6503193 0.5872764 -0.5489313

fc.2.weight f4 [64, 128]
000000 ff 25 97 bc 6a 8b 39 3d ff 44 c4 3d 6f 68 93 bd
       -0.018450735 0.04529897 0.095834725 -0.071976535
000010 7c ea e6 bd dd 97 eb bd fc 85 35 3d ca 87 6e bd
       -0.11275193 -0.11503575 0.04431723 -0.058234967
000020 82 6a 9f bc bf 05 f9 bd 97 c0 47 be 41 71 85 bd
       -0.019459967 -0.12159299 -0.19507061 -0.06515742
000030 22 c0 03 bc 92 01 45 be 88 f8 38 bd fd 21 b7 3d
       -0.0080414135 -0.1923888 -0.045158893 0.089420296
000040 0c 31 99 bd d5 7d 54 bd d8 47 08 3c 51 a2 a7 3a
       -0.07480058 -0.051877815 0.00831791 0.0012789463
000050 57 f1 41 be f4 b7 63 bd 39 bd 29 3e d1 92 a6 bd
       -0.1893972 -0.055595353 0.16576089 -0.08133472
000060 cf 16 a6 bd 94 8f 79 bd 40 9f 86 3b af 47 8f 3c
       -0.08109819 -0.060927942 0.0041083395 0.017490236
000070 b6 99 a8 3d 07 3a 8a 3d b2 81 b2 bd 22 c1 56 bd
       0.08232443 0.06749349 -0.08716144 -0.05243028
000080 39 cb 70 3c 03 af 91 3d 20 3d a5 3b 45 ea a1 3d
       0.01469689 0.07113459 0.005042687 0.079060115
000090 81 0d 5f bd 93 74 d9 3d a8 84 6e 3e e3 55 f6 3d
       -0.054456238 0.10617938 0.23292792 0.120281
0000a0 0d e7 1c 3e ab 7d b0 3d f3 0d 53 3d 7d 35 4c bd
       0.15322514 0.08617719 0.051526975 -0.049855698
0000b0 e6 a4 54 3d 64 e0 ba be 93 40 98 3d eb 78 2c 3e
       0.051915072 -0.3649932 0.074341916 0.16843002
0000c0 9b 98 08 be ca b5 b9 3d 07 08 f3 bd b3 21 9a 3d
       -0.13339464 0.09067877 -0.118667655 0.07525959
0000d0 07 5d fe ba a2 18 25 bd 96 3b 33 3d d0 7a 5c 3c
       -0.0019406386 -0.040306695 0.043757997 0.013457015
0000e0 6f 61 0c 3d 00 cc ff bd 6e 48 a8 bd 0d 4e 35 3c
       0.034272607 -0.12490082 -0.0821694 0.011065972
0000f0 3b 60 4a 3e ae 62 64 bd 4e 48 6f 3d 72 25 03 be
       0.19763272 -0.05575817 0.058418564 -0.12807253
000100 5a 3c 87 3d fa a3 b5 bd 13 97 0f bd 4d d2 e2 bd
       0.06603308 -0.08869167 -0.035056185 -0.11075268
000110 19 19 61 3d e7 52 61 be e3 22 58 be 8d 0d a9 3d
       0.054955576 -0.22004281 -0.21107058 0.08254538
000120 4c 77 fd bc 18 7a 80 be 86 3b 04 bd 83 2b 02 3e
       -0.030940674 -0.2509315 -0.03228333 0.12711911
000130 39 25 61 bd 02 8a 15 bd 5a bb c5 bd 70 7d 97 3d
       -0.05496714 -0.036508568 -0.09654875 0.07396972
000140 99 28 15 be 3c a5 87 3d 63 d3 2e bd 0f 07 e6 3d
       -0.14566268 0.06623313 -0.042682063 0.11231815
000150 0e 50 d9 3b aa 96 09 be 6c f9 81 3d b3 8a bb 3c
       0.0066318577 -0.1343638 0.063464016 0.022893285
000160 30 5a 2f 3d eb bc a6 3d 93 76 57 bd a0 c4 48 bd
       0.04281062 0.08141502 -0.052603316 -0.04901564
000170 d0 7e d7 3c b7 28 d6 bd b4 94 3a bd 24 0a 45 3d
       0.026305586 -0.104569845 -0.04555197 0.048105374
000180 44 da 67 3d 93 ec 15 bd 65 a9 21 3d bf 83 c9 3c
       0.05660464 -0.036602568 0.039468188 0.024598954
000190 2f ac a8 bb 3e 96 bd bd a0 cf 17 3e 46 89 cb 3d
       -0.005147479 -0.09257172 0.14825296 0.09938292
0001a0 d0 d7 9e bd 02 57 04 be 61 df 8a 3d a5 70 8a bd
       -0.07756007 -0.12923816 0.067808874 -0.067597665
0001b0 c0 cd 94 3c 3d 42 91 bd f9 b3 64 be bc 9d 87 bd
       0.018164515 -0.07092712 -0.22334279 -0.06621882
0001c0 03 1b 92 3d eb bc 46 bd ce bb 79 bd a9 79 30 bd
       0.07134058 -0.04852001 -0.06097012 -0.043084774
0001d0 b6 86 c8 bd c9 02 7b bc 64 87 10 3d b5 74 16 bd
       -0.09791319 -0.015320488 0.03528537 -0.036732394
0001e0 57 c2 95 3d b2 c7 0c 3d 4e 72 7a 3c be 99 b7 bd
       0.07312458 0.03437013 0.015286041 -0.08964871
0001f0 15 11 30 be 85 f1 a0 bc 31 d3 cf 3d db a9 8d 3d
       -0.17194016 -0.019646415 0.101477034 0.06917163
000200 76 24 5a bc a9 19 f6 3c be ac d8 3b 25 25 31 3b
       -0.013314357 0.030041533 0.0066123893 0.0027030197
000210 77 a3 89 3d 9f 1b aa bd 45 cd a0 3d 41 24 4e 3d
       0.067206316 -0.083060496 0.07851652 0.050327543
000220 ae a0 22 be b7 33 60 bb be dc 1e 3c eb 8a a6 3d
       -0.15881607 -0.0034210512 0.009696184 0.08131965
000230 c3 e0 9c 3d 8f 97 eb bd 00 1c c9 b8 6a 3f ba bc
       0.076600574 -0.11503517 -9.589642e-05 -0.022735316
000240 23 61 2e bd 9a df c0 bd fc d7 10 3d aa d0 ec 3c
       -0.042573106 -0.094176486 0.03536223 0.028908093
000250 8d 2e 0f 3c f7 d7 aa bd 95 f8 34 3c 3a 83 45 3d
       0.008739126 -0.08341973 0.011045595 0.04822085
000260 a7 12 ef bc b0 5e 67 bd ea 15 47 3d 95 38 1f 3e
       -0.029183699 -0.056486785 0.048604883 0.15548928
000270 ee 65 b7 3c a6 1d 65 be 20 57 74 bd 91 94 80 bd
       0.022387471 -0.22374591 -0.0596534 -0.06278337
000280 90 be e8 bc 45 da 99 3d 94 da a2 be 6d ec c0 3a
       -0.02841118 0.07512335 -0.31807387 0.0014718898
000290 f6 49 78 3c 5a 8a 0e 3e 08 45 94 3d 5a c3 0f be
       0.015154352 0.13919964 0.07239729 -0.14039364
0002a0 24 0b 83 bd 6f 1c 92 3d d7 c5 07 3e d8 bd 6a 3d
       -0.06398609 0.071343295 0.13259064 0.057309955
0002b0 24 95 10 3d 74 51 b1 bd da 35 48 bd 7d e0 1d 3e
       0.03529848 -0.08658114 -0.04887948 0.15417667
0002c0 a6 4e b3 3d 19 ee f5 3d 18 09 42 3d 72 19 9f bd
       0.087552354 0.12008304 0.047371954 -0.07768525
0002d0 80 13 bc 3d 74 df c3 3c 02 f5 51 be 10 cc b7 3d
       0.09183407 0.023910262 -0.2050362 0.08974469
0002e0 0f 77 94 3c 6a 7f 82 3d 74 41 fa bc e1 96 00 3d
       0.018123178 0.063719586 -0.030548789 0.03139389
0002f0 a2 c6 b5 bd d8 7e bb bc eb 56 91 bd bf a8 32 bd
       -0.08875777 -0.022887632 -0.070966564 -0.04361796
000300 2a 13 8a 3d e3 bc 07 3c 41 f8 87 3d 5f e6 d9 3d
       0.067419365 0.00828478 0.066391475 0.10639643
000310 4b e1 6c 3d 86 b7 fc 3d 25 67 14 3d fd fb 8c 3d
       0.057832044 0.12339692 0.03623118 0.068840005
000320 14 c6 9f bd 1c d5 9e bd 80 eb b3 3d 12 1d 84 be
       -0.07801452 -0.07755491 0.087851524 -0.2580343
000330 58 0d a9 bc a0 34 dc bd 22 54 a1 bd 0f 2a 33 3e
       -0.020636246 -0.10752225 -0.07877375 0.17496513
000340 9d fd d6 3d 40 00 97 3d 46 6a 61 3b 1d ca d6 bc
       0.10497592 0.073730946 0.003439562 -0.026219422
000350 8e 8d 2f bd f8 a1 50 bc fc dc 6c 3d 9a f7 70 3d
       -0.042859606 -0.012733929 0.057827935 0.05882988
000360 95 da 07 3e df 6d 8e bd 38 3c 88 bd 3c a6 11 be
       0.13266976 -0.0695455 -0.06652111 -0.1422357
000370 30 ee bd bc 69 3a 6c bc 39 0c 21 bd af 9a c1 bd
       -0.023184866 -0.014418223 -0.039318297 -0.09453332
000380 3a eb b0 bb f3 1f 17 be 9c c6 82 be b4 80 97 3c
       -0.005399135 -0.14758281 -0.25542152 0.018493988
000390 cb 9c 67 bd 63 78 21 be 3f 22 af 3d b7 af 07 3d
       -0.056546014 -0.1576858 0.08551454 0.03312656
0003a0 52 5d ed bd 9c a4 d7 3c 4f b0 61 3d 8e cb 57 3d
       -0.11590065 0.026323609 0.05509978 0.05268436
0003b0 f5 ac 4b bd 87 2a b7 bc 0d bb cf bd 25 9b 7d bd
       -0.04972549 -0.022359146 -0.10143099 -0.061915535
0003c0 e7 49 a2 3d a7 91 87 3d 6c b9 1d 3e bd 54 ca bd
       0.07924252 0.06619578 0.15402764 -0.09879444
0003d0 ab ee 9a bd 3b 47 1b 3e c6 13 46 37 22 97 b2 bc
       -0.075650536 0.15163891 1.18063235e-05 -0.021800581
0003e0 c8 e6 4b bd 0e 2a bd bc 8c 44 23 3d 58 34 64 3b
       -0.049780637 -0.023091342 0.039860293 0.0034821238
0003f0 b7 73 88 bc 42 ef 8e be 06 d1 81 3d eb e4 c3 bd
       -0.01665674 -0.27916914 0.06338696 -0.09565147

fc.2.bias f4 [64]
000000 e8 fc 3e 3c 7e 67 e8 bc 71 f5 06 3e de f6 15 be
       0.011656977 -0.028369661 0.13179566 -0.14644954
000010 2f 1f af 3c 2f 05 a5 bb 9e e6 5e 3d 1e a9 99 3b
       0.021377174 -0.0050360183 0.054419152 0.00468935
000020 32 82 57 bc dd 30 9c bd 84 bd 29 be 2d 5c 16 bd
       -0.0131536 -0.076265074 -0.165762 -0.036709
000030 fd 0b 17 3e 00 19 4b 3c fe 09 a9 bc b9 c2 9d bd
       0.14750667 0.012396097 -0.020634647 -0.07703156
000040 da 49 9a bd 40 e5 04 3d 3f fd d6 3e 81 91 41 3d
       -0.07533617 0.032445192 0.41990086 0.047257904
000050 75 68 81 bd 4e de 22 3e ff d4 00 be 05 a2 9e bd
       -0.06318752 0.15905115 -0.12581252 -0.077457465
000060 75 19 84 3d 76 9b c8 bc 98 0c 9b 3e 7e 5d 1b bd
       0.06450168 -0.024488192 0.30283046 -0.037930958
000070 4c b1 15 be 01 7a 51 bd e8 f3 d6 3d 5b 69 80 3d
       -0.14618415 -0.051141743 0.1049574 0.06270095
000080 c1 1f 0e be 76 46 0c 3d ea d5 d5 3d 0d 6b b6 bd
       -0.138793 0.034246884 0.104411915 -0.08907137
000090 39 3d a2 bd c8 92 b2 3d b5 3d 5a bd cd 2f ab bd
       -0.079218335 0.087194026 -0.053281505 -0.08358727
0000a0 21 0e 9d 3d fc 6b ff bd a3 04 43 bd 2f 42 12 bd
       0.076687105 -0.12471768 -0.047611844 -0.03570765
0000b0 54 53 65 3e 4b d2 a5 bb 0c f4 73 be 25 63 14 3f
       0.22395068 -0.0050604693 -0.23823565 0.5796378
0000c0 3b 0a ed bd 7e 3a 68 3c fd 64 80 bd 38 88 19 be
       -0.11574217 0.014174102 -0.06269262 -0.1499337
0000d0 11 be 11 be 49 38 d1 3d bd 52 e6 3d 41 b5 f4 3e
       -0.14232661 0.10215814 0.1124625 0.47794536
0000e0 6a fd 22 be 29 47 b5 bd ea b4 aa 3c ed 6d f5 bd
       -0.15916982 -0.08851463 0.02083822 -0.11983857
0000f0 82 e4 a8 3c 64 f0 8b 3e d1 de 02 3d e4 3d 42 bd
       0.020616774 0.2733184 0.031950776 -0.047422305

fc.4.weight f4 [32, 64]
000000 10 13 98 3c 2c 9f 38 bd 26 45 98 bd a0 32 b8 3d
       0.018563777 -0.045073673 -0.07435064 0.08994031
000010 c5 18 9c bc 6b 17 4f bd d8 3d 97 bc c2 d0 fe bd
       -0.01905478 -0.050559442 -0.018462107 -0.12442161
000020 39 97 07 3c 9b 91 e8 3c 5c 53 14 bd 67 77 b6 bd
       0.0082758 0.028389743 -0.03621231 -0.08909493
000030 c3 2a bb 3c 2d 64 e4 bd 78 d8 b4 bc 3e e7 3f 3d
       0.022847539 -0.111519195 -0.022075877 0.04685139
000040 cd 09 f8 3d 65 94 92 bd 9c e8 70 3d 16 9a e9 3d
       0.12111244 -0.0715721 0.058815584 0.11406343
000050 68 94 b9 3d 94 fb 3b 3d 20 4b eb bc 66 83 ac 3d
       0.09061509 0.04589422 -0.028722346 0.084235
000060 05 bb be bd fc d3 51 3d ec 08 9d 3d 51 e2 1d be
       -0.09313015 0.051227555 0.07667717 -0.15418364
000070 ea 12 94 3d f1 c3 f3 3d 20 07 f0 bd 98 43 c4 3c
       0.0723017 0.11902607 -0.11720109 0.023958012
000080 28 2d c2 3c ce 08 a7 bb ea 12 50 bd 54 73 94 3b
       0.023703173 -0.005097485 -0.050799288 0.0045303497
000090 29 1a b6 3d 9b 9f 53 bd e2 ca b0 bc 77 09 d0 3d
       0.088917084 -0.051665884 -0.021581117 0.10158055
0000a0 97 f0 ee bd 3c 67 0b be d3 06 8f bd 5b ce c0 3d
       -0.116669826 -0.136136 -0.069837235 0.09414359
0000b0 e5 57 7c 3d f9 01 fd 3d 7b b5 f6 bc 73 78 60 bd
       0.06160726 0.12353892 -0.030115834 -0.05480237
0000c0 d1 ec 92 bd 1f 3d 5f bc 5d ef 14 bd 24 1a fc bd
       -0.071740754 -0.013625412 -0.036361087 -0.123096734
0000d0 d4 1c ca 3d 36 d4 70 bd 13 27 cb bd 89 b6 ac 3b
       0.0986878 -0.05879613 -0.09919562 0.0052707833
0000e0 c2 dd 8d bd 22 8a c4 bd c9 84 0a 3c 95 09 97 bd
       -0.069270626 -0.09596659 0.00845451 -0.073748745
0000f0 a3 93 2d bd 6f 54 48 3d cf ec e4 bc 38 11 54 3c
       -0.042377125 0.048908647 -0.02794495 0.012943558
000100 d7 65 9a 3e 4e 90 6d be ff 6c 54 3d 6c 46 9d 3e
       0.30155823 -0.23199579 0.05186176 0.3071779
000110 2e 16 d7 be ec fb 24 3d 22 b4 98 3e 0b 86 82 bd
       -0.4200911 0.040279314 0.2982493 -0.06373223
000120 64 af 55 be b7 2a 7d 3e 0d 25 8d be a9 88 27 bd
       -0.20867687 0.24723326 -0.2756733 -0.040901814
000130 17 05 b4 3e fa e9 ce be 13 f7 da bd b3 6a 04 bd
       0.35160133 -0.40412885 -0.10691657 -0.03232832
000140 91 65 98 3d 72 04 36 3e c7 7f 29 3f bb 73 0e 3e
       0.07441247 0.17775133 0.662106 0.13911335
000150 d6 f2 0e 3e ff ff d3 bd c4 29 ef 3d f6 81 6f bb
       0.13959822 -0.10351562 0.11677888 -0.0036545969
000160 d2 c3 94 3b 1c 31 db 3e 8e 0c fd 3e b3 76 0a 3e
       0.004539945 0.42810905 0.4942364 0.13521843
000170 de 46 02 be 76 21 b8 be 9a 1b 86 3e f5 87 84 3e
       -0.12722346 -0.3596303 0.26192933 0.25884977
000180 fb 3c 71 be d9 37 43 be ef 76 44 bc 4a 87 97 bc
       -0.23558418 -0.19064273 -0.011991247 -0.018497128
000190 6c 3a b0 3d 8f 53 4c bd 76 44 22 3e 4e 60 dc bc
       0.08604893 -0.049884375 0.15846428 -0.02690139
0001a0 85 d0 ab 3e 7f e3 72 3d d7 8e bf be 2d 44 a0 bd
       0.33557525 0.05929899 -0.37413666 -0.078255035
0001b0 e8 47 29 be c8 e6 e7 3c 87 da 5a 3e 46 c1 01 bf
       -0.16531336 0.028308287 0.21372424 -0.50685537
0001c0 ce 79 f7 bd 44 57 b4 3e 05 b9 1b 3e e3 13 da bd
       -0.12083779 0.35222828 0.15207298 -0.10648324
0001d0 51 eb f0 be 67 47 b1 3b 3c af ff bd 18 fb e2 be
       -0.47054532 0.005410123 -0.12484595 -0.44332194
0001e0 4f d7 ba be bf 70 3a be 54 56 a5 3d 02 50 a5 3d
       -0.36492392 -0.18207072 0.080731064 0.08071901
0001f0 5b 0e b5 3d ec e1 d1 3e aa 0e ca be a6 7e a4 ba
       0.08840629 0.40992677 -0.39464313 -0.0012549951
000200 c1 1c bc 3b 09 a6 29 3c cd 0e 24 bd 8c e4 7d 3b
       0.0057407324 0.010354527 -0.040053178 0.003874096
000210 9b 10 be bd dd 56 c6 3d 70 df 3c 3d 6b 1b 93 bd
       -0.09280511 0.096845366 0.046111524 -0.07182964
000220 a7 c9 89 bd a0 55 c7 bc c7 a6 b1 3d ad 02 cc bd
       -0.06727915 -0.024332821 0.086743884 -0.09961448
000230 2d 89 e7 bd 38 6c f4 bd 13 2e 4b bd 18 c3 82 3d
       -0.11305461 -0.119347036 -0.049604487 0.063848674
000240 1c 8b 93 3d 80 6f bb 3d f3 1a 59 bd 4d a0 a5 bd
       0.072042674 0.09152126 -0.053004216 -0.080872156
000250 57 bd ba bd 2c fb da 3b 45 34 ba bd e2 1a 92 bc
       -0.09118145 0.006682774 -0.09092001 -0.017835084
000260 55 1f 1a 3c 93 76 41 bc a8 be 78 3d a5 63 b0 bd
       0.009406884 -0.011808055 0.0607287 -0.08612756
000270 d9 2f 57 bd f1 89 e7 bd 9e 44 60 3d 26 27 ac 3d
       -0.052535865 -0.11305607 0.05475294 0.084059045
000280 9b 8a 84 bd d5 03 fc 3d c1 91 05 3d 32 fc fb bd
       -0.064717494 0.123054184 0.032609705 -0.12303962
000290 aa 59 bd 3d 7a 04 ca bd f1 22 98 bc 3b 3d aa bc
       0.09245618 -0.09864135 -0.018571349 -0.02078115
0002a0 4d cc e8 bd 7e aa b5 bd 25 df 47 3d 03 26 ad 3c
       -0.11367092 -0.088704094 0.04879679 0.02113629
0002b0 c4 1a f9 bc c6 90 d6 bd 36 f4 73 bd 66 e4 d4 3c
       -0.03040827 -0.10476832 -0.05955907 0.025987815
0002c0 c2 10 05 bd 43 7f da bb 09 a6 bb bd d3 95 c0 bd
       -0.032486685 -0.006668003 -0.09162528 -0.09403577
0002d0 ed f1 cf bc 1f 93 a0 bd ab dd bc bd ff e0 ec 3d
       -0.025383914 -0.07840561 -0.09221967 0.11566352
0002e0 26 e1 06 bd 4b da be 3d 2a 5f 0a bd 62 0d 39 3d
       -0.032929562 0.0931898 -0.03378216 0.04517878
0002f0 f0 3c b4 3d c7 17 91 3d db 9c f4 bd 25 cd b8 3d
       0.088006854 0.07084613 -0.1194398 0.09023503
000300 84 d6 89 3e f0 f3 e4 be de 50 a5 3e 10 0d 09 3f
       0.26921475 -0.4471736 0.3228826 0.53535557
000310 68 75 07 bf 44 15 c4 3b 46 c4 84 3e b5 bf 2e 3e
       -0.5291352 0.0059839804 0.25930995 0.17065318
000320 d0 c4 63 be 00 90 99 3e 2d ab a8 be af ce 73 be
       -0.22243047 0.29992676 -0.32943097 -0.23809312
000330 7e 8b 00 3e 9a ea 17 bf 5a ff a0 bd c1 cd 7f 3e
       0.12553212 -0.5934235 -0.078612044 0.24980833
000340 a5 35 12 bd 33 4e 76 3e b5 63 52 3f a2 f6 43 3c
       -0.03569569 0.24053268 0.8218339 0.011960657
000350 ec dd e7 3c a9 5a 0b 3d 70 3c 4c 3e 0c e1 88 bd
       0.028304063 0.034022007 0.1994493 -0.06683549
000360 c8 b7 5e bc b3 1c 13 3f 60 b5 18 3f 7d a7 2e 3e
       -0.013593622 0.57465667 0.59651756 0.17056079
000370 11 f1 a9 be 9c 32 d3 be fa ca ae 3e 60 51 a5 3e
       -0.33191732 -0.4124955 0.34139234 0.32288647
000380 62 9f 81 be 3f 84 85 be 5c bb 88 3d a1 a0 9f be
       -0.25316912 -0.26077458 0.06676361 -0.31177238
000390 31 32 bb bd e8 f2 84 3d 7d 5c a5 3e 65 08 8a bb
       -0.091404326 0.06491643 0.32297125 -0.0042124265
0003a0 83 41 cf 3e 23 f5 9b 3e f2 60 b5 be ad e2 6c 3d
       0.4047967 0.30460462 -0.35425526 0.057833362
0003b0 89 e1 75 be cc 0b f9 3e d4 38 f4 3e 71 4b 49 bf
       -0.24011816 0.48641813 0.47699606 -0.7863074
0003c0 ab ec b1 bd dd e3 33 3e 14 e9 80 bb e2 e4 63 3e
       -0.08687719 0.17567392 -0.003934035 0.2225528
0003d0 e3 c1 8d be 8c 88 9d 3d 37 3f 84 3d ec ae 22 bf
       -0.27686986 0.0769206 0.0645737 -0.6354816
0003e0 1c 82 15 bf 7a f0 c1 be 00 6b 9b 3e b5 eb 86 3e
       -0.58401656 -0.37878782 0.30355072 0.26351705
0003f0 0e 93 08 bd de 07 07 3f 59 68 0b bf cd 13 57 3e
       -0.033343367 0.5274638 -0.54456097 0.21003647

fc.4.bias f4 [32]
000000 ed d0 be bc f6 28 24 3d 3f a9 da 3c df 62 5d bb
       -0.023292983 0.040078126 0.026692031 -0.0033780856
000010 94 41 5f bd 85 9c 1d bd a7 9a e4 bd 5a ab 0f 3f
       -0.0545059 -0.038479347 -0.1116231 0.56120837
000020 c7 a8 f9 bc 01 b5 28 3d 86 1d 9d bd e2 41 82 bc
       -0.030475987 0.041188244 -0.07671647 -0.015900556
000030 24 e0 44 3e 4e b6 12 3e fc ff cd bc fb d6 5e 3e
       0.19226128 0.14327356 -0.025146477 0.21761696
000040 42 63 85 3d 10 7e a0 3c c1 ea 04 be d9 58 b6 3c
       0.065130726 0.019591361 -0.12980177 0.022259163
000050 41 55 6a 3d 96 a5 51 bd bf 6c 9a bd fc 40 72 bc
       0.05721021 -0.051183306 -0.07540273 -0.014786001
000060 79 ff e5 3c cf d2 2c 3e df cf ad ba ad c2 a5 3c
       0.02807592 0.16877292 -0.0013260803 0.02023443
000070 3d d5 f5 bc 82 27 05 be 14 1e 0c 3e a8 da 23 3e
       -0.030008906 -0.13003352 0.13683349 0.1600138

fc.6.weight f4 [1, 32]
000000 62 e9 37 3e 87 ba ee bf 3f b1 26 bc 6d 4f 23 c0
       0.17960122 -1.8650674 -0.010174095 -2.5517228
000010 15 84 32 bf 0c 30 3d 3e 93 e2 3a be 40 0b be 3f
       -0.6973279 0.1847536 -0.18250494 1.4847183
000020 57 cf 09 3c 62 aa 0d 3f 7c 18 6f be 19 83 b5 3c
       0.00841125 0.5533811 -0.23349184 0.022157239
000030 fd e9 0c 3f 16 83 0c bf 3c 27 df bf b1 60 32 3f
       0.5504454 -0.5488752 -1.7433848 0.6967879
000040 98 40 77 3d a4 ef 31 bf 1d e1 6e bf 7e 01 a4 3d
       0.060364336 -0.6950629 -0.93312246 0.08008097
000050 dc 91 85 be dc 41 85 3e 01 8f f9 3e 15 01 30 bf
       -0.26087844 0.2602681 0.48741916 -0.6875165
000060 00 be d4 be 2d 8d 2a 3f 6d ec 71 bf 64 fd 67 be
       -0.41551208 0.6662167 -0.9450138 -0.22655255
000070 ca df 49 be 04 f9 98 3d a4 77 bf bf 62 1f 5e 3f
       -0.19714275 0.07469371 -1.4958386 0.86766636
