dqn.pt (torch, 38048 bytes, 6 tensors)

fc1.weight f4 [128, 2]
-1.6562409 -0.059431866 -0.0371732 -1.0116179 0.15860428 -0.56002855 -0.31781355 -1.0038117
-0.51096475 -0.4712773 -0.004380822 -0.5600494 -0.5580765 0.23438966 -0.45845184 0.49995917
-1.2544506 -0.2761877 -0.019256055 -0.47201023 -0.14522178 -0.43655172 -0.12020308 0.3354345
0.11267537 -0.5616245 -0.18613517 0.5127234 -0.12572479 -0.5945146 -0.12557966 -0.1456182
-1.015143 0.61733353 -0.06652921 -0.30945465 -0.5093407 0.17145567 0.028540116 -0.4593538
-0.39011747 0.47289532 -0.075225905 -0.6092026 0.06842885 -0.50967944 -0.18186098 -0.27466056
-0.053496927 -0.70024604 -0.56391203 0.6513764 -0.1440812 -0.5959051 0.3578556 0.47628954
0.39466125 -1.0314205 0.23742077 0.10031374 -0.37935022 -0.23926571 0.57951266 -0.6617026
0.78321034 0.16154522 -0.6408234 -0.25761274 0.012393572 -0.42491773 -0.65092385 0.4694147
-0.029775849 -0.28882375 -0.20036894 -0.5314489 -0.3501126 0.57922065 -0.5514022 0.2056275
-0.10562036 -1.2095517 -0.26822054 -0.4122949 -1.732621 -0.19729578 0.060159996 0.2740912
-0.39740095 -0.1885227 -0.8387185 -0.67889273 -0.11035681 -0.3899305 -0.5845633 0.81615573
-1.7853874 -0.3107663 0.5887037 0.1792363 0.3497241 0.41802806 -0.2358559 0.39119932
-0.17931741 0.5820009 -0.6720356 0.43207383 -0.12639263 -0.18251032 -0.68809164 0.26697153
0.20432997 0.20569837 0.12963867 -0.0011751652 -0.24401128 0.2687583 -0.073867165 0.40533325
1.0384803 -0.23235881 0.06598997 -0.14334929 0.09013599 -0.17286927 -0.24044263 -0.19596587
-0.22925633 -0.60032666 -0.06270051 -0.56225365 0.57315034 0.22497696 1.0021924 -0.06577626
0.22682953 -0.3550136 0.04979925 0.75978667 0.41068637 0.30386198 -0.2073279 0.039863165
0.074787736 0.58552104 -0.31108442 0.18789925 -1.6970184 -0.09874135 -0.22366437 -0.678469
-0.53435284 0.24534285 1.2932941 -0.026017463 0.6838359 0.5912647 0.08418239 -0.29349324
0.09614539 -0.5020922 1.0411025 0.10752982 0.071278386 -0.65410584 0.33071634 -0.32368073
-0.42611217 -0.09023826 -0.22686216 0.4501565 -0.41708073 -0.066654086 -0.07651117 -0.56679124
-0.17605238 0.09247743 0.41047353 0.17759466 -1.6309047 0.569538 -0.2506455 0.4522508
-0.119112134 -0.69640106 -0.46022916 -0.2582533 -0.18672603 -0.2996349 -0.32122853 -0.004018128
0.34967583 -0.65529287 -0.6123586 -0.21193188 -0.21422079 -0.42203307 0.38914043 -0.14271891
0.046640873 -0.00755769 -0.45513564 -0.22001767 0.14824873 -0.36010465 -1.3027927 -0.14949606
-0.27467403 0.35743183 0.2559344 0.1289839 0.34648454 0.31202996 -0.10523325 -0.6238625
0.47084257 -0.55604124 0.37889642 -0.58072543 -0.5464235 -0.18613243 0.29499057 0.06537179
-0.1463781 -0.44379333 0.325519 -0.23568913 -0.33886218 -0.6611188 -0.041104157 -1.1329255
-0.47874522 -0.41400805 0.08369404 -0.4871784 0.10649654 -0.94714844 0.13783741 -0.38397676
-0.7548457 0.27721536 -0.47387624 -0.15507513 -0.1508035 0.5680178 -0.15885144 0.32111186
0.8586117 -0.73222643 0.19967878 0.2767226 -0.5037281 0.042042732 1.0778164 0.55586535
00000000: b4ff d3bf d46e 73bd ed42 18bd b27c 81bf
00000010: 2969 223e 085e 0fbf 75b8 a2be e77c 80bf
00000020: 96ce 02bf 424b f1be 008d 8fbb 665f 0fbf
00000030: 1ade 0ebf d803 703e 33ba eabe a6fa ff3e
00000040: d691 a0bf 7968 8dbe e0be 9dbc 53ab f1be
00000050: 05b5 14be b583 dfbe 082d f6bd 12be ab3e
00000060: 58c2 e63d a0c6 0fbf 389a 3ebe d741 033f
00000070: 00be 00be 1c32 18bf f497 00be f01c 15be
00000080: 35f0 81bf 9209 1e3f 7740 88bd d770 9ebe
00000090: 2764 02bf 1392 2f3e f6cc e93c 6c30 ebbe
000000a0: 7abd c7be 561f f23e 0a10 9abd b4f4 1bbf
000000b0: 6d24 8c3d 5a7a 02bf c439 3abe 4fa0 8cbe
000000c0: 981f 5bbd 5343 33bf 8a5c 10bf 9bc0 263f
000000d0: 068a 13be 3d8d 18bf d938 b73e 39dc f33e
000000e0: 0a11 ca3e 9605 84bf 6e1e 733e 4a71 cd3d
000000f0: 313a c2be 1202 75be f15a 143f 5765 29bf
00000100: 7980 483f 1c6c 253e 010d 24bf d1e5 83be
00000110: 690e 4b3c d18e d9be f2a2 26bf 2057 f03e
00000120: 7bec f3bc b5e0 93be 842d 4dbe 090d 08bf
00000130: f541 b3be ce47 143f b228 0dbf 0490 523e
00000140: 7d4f d8bd 97d2 9abf 3454 89be 5118 d3be
00000150: 86c6 ddbf e807 4abe 546a 763d af55 8c3e
00000160: 2378 cbbe 180c 41be 41b6 56bf eacb 2dbf
00000170: c002 e2bd f8a4 c7be f1a5 15bf 95ef 503f
00000180: 9387 e4bf c31c 9fbe 49b5 163f b889 373e
00000190: 0a0f b33e c607 d63e 3684 71be 474b c83e
000001a0: fc9e 37be 03fe 143f 860a 2cbf c838 dd3e
000001b0: 126d 01be fce3 3abe c626 30bf 7eb0 883e
000001c0: e03b 513e 98a2 523e 00c0 043e 0008 9aba
000001d0: 18de 79be b09a 893e ab47 97bd d787 cf3e
000001e0: ecec 843f 78ef 6dbe c025 873d 28ca 12be
000001f0: 3899 b83d a404 31be 9836 76be 47ab 48be
00000200: 2cc2 6abe 02af 19bf 2069 80bd dbef 0fbf
00000210: fbb9 123f 5c60 663e d747 803f b4b5 86bd
00000220: 0046 683e 58c4 b5be 4cfa 4b3d 6181 423f
00000230: 7c45 d23e cc93 9b3e c44d 54be 8f47 233d
00000240: 502a 993d b5e4 153f 7546 9fbe a968 403e
00000250: e637 d9bf e838 cabd 4608 65be 25b0 2dbf
00000260: 59cb 08bf 283b 7b3e a98a a53f 9322 d5bc
00000270: df0f 2f3f 205d 173f d167 ac3d bf44 96be
00000280: e0e7 c43d 1d89 00bf d942 853f 9838 dc3d
00000290: 67fa 913d 7b73 27bf a753 a93e 7bb9 a5be
000002a0: 602b dabe d6ce b8bd 8e4e 68be ea7a e63e
000002b0: 9b8b d5be f081 88bd e3b1 9cbd 3b19 11bf
000002c0: 1347 34be cf64 bd3d 9629 d23e 60db 353e
000002d0: 7cc1 d0bf 3ecd 113f 9b54 80be 6b8d e73e
000002e0: 10f1 f3bd 5747 32bf 28a3 ebbe c739 84be
000002f0: 1c35 3fbe bf69 99be 1178 a4be 80aa 83bb
00000300: b608 b33e 46c1 27bf 89c3 1cbf ac04 59be
00000310: b25c 5bbe b814 d8be 6a3d c73e e824 12be
00000320: 800a 3f3d 80a6 f7bb 8a07 e9be 504c 61be
00000330: 84ce 173e a35f b8be e9c1 a6bf 7f15 19be
00000340: 13a2 8cbe 4e01 b73e d509 833e 5b14 043e
00000350: 6c66 b13e 64c2 9f3e 8884 d7bd 74b5 1fbf
00000360: 4712 f13e b858 0ebf b6fe c13e 6caa 14bf
00000370: 69e2 0bbf 8099 3ebe 0109 973e a5e1 853d
00000380: 24e4 15be e138 e3be 6daa a63e 7e58 71be
00000390: 587f adbe 153f 29bf d55c 28bd b403 91bf
000003a0: 181e f5be ddf8 d3be c867 ab3d 726f f9be
000003b0: dc1a da3d 5278 72bf 4025 0d3e 9a98 c4be
000003c0: 913d 41bf 2cef 8d3e e89f f2be 04cc 1ebe
000003d0: 3c6c 1abe 9d69 113f f4a9 22be c668 a43e
000003e0: facd 5b3f 3173 3bbf 9878 4c3e 96ae 8d3e
000003f0: 53f4 00bf 0035 2c3d e3f5 893f 314d 0e3f

fc1.bias f4 [128]
0.3406631 0.5046503 0.40625662 0.15847239 -0.06403774 -0.47750178 -0.6616281 -0.018556869
0.3837737 0.30600393 0.47530147 -0.4938193 -0.12912577 -0.50211734 -0.17473847 -0.25981036
-0.28241765 0.07678752 0.27665344 0.16780852 -0.62898195 0.42939237 0.36967114 -0.0129887005
0.5126016 -0.019129947 0.101048276 0.18103686 0.1977045 -0.16736907 -0.40233868 0.34927282
-0.29348052 -0.47194025 -0.016408585 0.2819794 0.0077395937 0.0586461 -0.15054744 -0.55530465
0.20534913 -0.01826556 0.386252 0.48854524 -0.48562473 0.6793459 0.062505774 -0.41297048
0.47753274 -0.6406297 -0.21596365 0.47389603 -0.6499382 -0.1990959 0.24354616 -0.68086785
-0.55258906 -0.23285756 -0.4643594 0.37010828 -0.041056897 -0.69471705 -0.42078122 0.3484933
-0.25239623 0.4051598 0.42480713 -0.16366194 -0.50601125 -0.39030805 -0.1633492 -0.039009094
-0.68187743 0.17810173 0.37973133 0.09000932 0.34969538 -0.24154451 -0.30449837 -0.00051406457
0.3482338 -0.29719314 -0.05715101 0.52985185 0.40816435 0.38261047 -0.19061661 0.10816668
-0.087592684 -0.6121981 -0.12198776 -0.34693423 -0.41091356 -0.24556196 -0.018558437 -0.45475632
-0.14935483 -0.19053721 0.25636166 -0.44531947 -0.5109258 -0.36462468 0.32850784 0.09032233
-0.4920804 -0.09018071 0.35648125 -0.04383415 -0.27214304 -0.32304066 -0.2638246 -0.1344265
-0.2845669 0.35120374 -0.6910097 0.5654919 -0.12391502 -0.05252981 0.08186756 -0.040460587
0.51004225 -0.655084 -0.50652814 -0.29872918 0.36102077 -0.5756221 -0.036943376 -0.63592964
00000000: 656b ae3e c330 013f de00 d03e 9646 223e
00000010: 3826 83bd 1d7b f4be 7660 29bf 9304 98bc
00000020: fd7d c43e 8cac 9c3e b75a f33e e2d5 fcbe
00000030: 8c39 04be c38a 00bf a4ee 32be dd05 85be
00000040: 0c99 90be c642 9d3d 85a5 8d3e ffd5 2b3e
00000050: f604 21bf 51d9 db3e 8945 bd3e 8fce 54bc
00000060: dc39 033f 68b6 9cbc 66f2 ce3d ba61 393e
00000070: 0c73 4a3e cc62 2bbe 56ff cdbe e3d3 b23e
00000080: 1443 96be 27a2 f1be 4c6b 86bc 9b5f 903e
00000090: 6b9c fd3b e536 703d 1c29 1abe 7228 0ebf
000000a0: 0b47 523e a8a1 95bc d2c2 c53e 9a22 fa3e
000000b0: cea3 f8be 9de9 2d3f 0703 803d de70 d3be
000000c0: 2c7f f43e 4f00 24bf 9325 5dbe 80a2 f23e
000000d0: 5a62 26bf ccdf 4bbe 2a64 793e 5b4d 2ebf
000000e0: 7a76 0dbf 3672 6ebe 84c0 edbe d57e bd3e
000000f0: 472b 28bd fad8 31bf a370 d7be b76d b23e
00000100: 143a 81be 1b71 cf3e 5280 d93e ff96 27be
00000110: f489 01bf 75d6 c7be 0345 27be 00c8 1fbd
00000120: 858f 2ebf 4d60 363e 256c c23e ce56 b83d
00000130: 460b b33e 7257 77be 36e7 9bbe 4ac2 06ba
00000140: b34b b23e b329 98be 2d17 6abd 5fa4 073f
00000150: ebfa d03e 85e5 c33e 0031 43be 7e86 dd3d
00000160: cb63 b3bd 04b9 1cbf b8d4 f9bd 5da1 b1be
00000170: 4363 d2be 9874 7bbe dd07 98bc d2d5 e8be
00000180: 79f0 18be 301c 43be d641 833e ea00 e4be
00000190: 09cc 02bf 16b0 babe 2e32 a83e eafa b83d
000001a0: f6f1 fbbe aab0 b8bd b684 b63e 708b 33bd
000001b0: 5556 8bbe 9665 a5be 0514 87be 1aa7 09be
000001c0: c1b2 91be fad0 b33e 03e6 30bf 14c4 103f
000001d0: 28c7 fdbd 8029 57bd 2eaa a73d 00ba 25bd
000001e0: 2192 023f 96b3 27bf d4ab 01bf 08f3 98be
000001f0: b7d7 b83e f85b 13bf f051 17bd 49cc 22bf

fc2.weight f4 [64, 128]
0.454988 -0.07981571 0.2085436 -0.08635008 0.03732633 -0.08764088 0.059513472 -0.0009662921
0.29286757 0.18678248 0.13648176 -0.06463616 0.059063144 0.021280892 0.0028906763 -0.042978816
-0.2808629 0.033327494 0.037534084 0.08913999 -0.021935485 0.23259105 0.24568287 0.07518889
0.31707022 0.035154544 0.12520425 0.09377889 -0.09239685 -0.09073524 -0.08773891 -0.2262468
-0.03630894 -0.07783527 -0.08969103 0.12859368 0.070303045 0.093516596 -0.07032283 -0.013896309
-0.002258802 0.114022575 0.4329582 0.13535258 0.0014566556 -0.22301741 -0.08077595 -0.3848032
0.07410829 0.021981806 -0.003742261 0.0599697 0.028200552 -0.1909622 0.087739535 -0.009071656
0.087290786 0.0146041885 -0.011721157 0.13112555 0.14445736 -0.04211839 -0.05665256 0.11288727
-0.047832415 0.07820084 0.15842067 0.16243495 0.060396306 -0.068321705 -0.047794208 -0.058352716
0.018685438 0.1212497 0.47682858 -0.015886625 -0.01266787 0.27489096 0.043420967 -0.008994375
0.35195598 -0.06647348 -0.038572617 0.075296804 0.1316912 0.045655478 0.057756357 0.2214362
0.025942795 -0.037141666 0.2633402 -0.09361933 -0.048124325 0.018121235 -0.09541413 0.00038904697
0.05143148 -0.039355535 -0.05295985 -0.041281667 -0.0058151186 -0.048718214 0.17517997 0.06346935
-0.04716895 0.06474364 0.04702629 -0.07491718 0.0510504 0.07366281 -0.08123918 -0.05272603
0.0859435 0.060511284 0.016704142 -0.25437626 0.08701847 0.012005895 0.11790038 -0.1890613
0.10463288 0.042312406 0.059540533 -0.074243866 0.32743973 0.027460508 -0.009348795 -0.13409626
0.6193359 -1.1530713 0.60162675 -0.12309904 -0.055384003 0.017679162 -0.034518614 -0.08221829
0.5659448 0.45644626 0.0689498 0.04602494 0.03385625 -0.028571792 -0.06905607 -0.004040584
-0.9511109 0.10264943 0.029026696 -0.002222955 -0.081193835 0.5710756 0.5215496 -0.0224254
0.66412145 -0.02098895 0.19912273 -0.13517837 -0.3437863 -0.83369935 -0.074452326 -1.3375102
-0.35480058 -0.008849628 0.20390691 0.024806727 -0.03612961 0.34057295 0.1293958 0.07172083
-0.23490152 -0.018972343 0.6260811 -0.10844921 -0.06207788 1.1902728 -0.098643064 -1.6654212
0.46374598 0.022671983 -0.9911806 -0.115400776 -0.023680516 -0.7018808 0.12957506 -0.04913846
0.025423937 0.011600874 0.042459227 -0.07705675 -0.07573947 -0.07353616 0.0063199922 0.106238276
-0.03599715 0.489546 -0.03425177 -0.026791727 -0.08327903 -1.6493752 -1.3082689 -0.026333233
-0.0030520111 0.0025020407 0.6711913 0.1998692 -0.07993204 -0.12485942 -1.336394 -0.057112057
0.64879644 -0.099274404 0.05618515 -0.003285679 0.14211331 -0.13493966 0.085791506 0.6894568
-0.08303442 0.07840025 0.6493083 -0.5669491 0.034117296 -0.06494753 0.01757551 0.011512719
0.013200024 -0.045222294 0.08447363 0.028452061 0.07141032 0.017380603 0.08341393 0.25773665
-0.011846647 -0.20300618 -0.024252333 -0.06785201 -0.26126498 0.0065035746 -0.07921507 -0.3785988
0.026441328 -0.08562427 -0.019260228 -1.3888724 0.035743445 0.07568581 -0.28873518 -0.18667364
0.017720887 0.07936364 0.0248646 -0.057063766 -0.51136994 -0.0810372 0.025138259 -0.59299576
00000000: 30f4 e83e 6b76 a3bd 748c 553e 50d8 b0bd
00000010: 7ee3 183d 107d b3bd 66c4 733d c44e 7dba
00000020: bdf2 953e e843 3f3e e0c1 0b3e f75f 84bd
00000030: 32ec 713d 4455 ae3c 8071 3d3b 8e0a 30bd
00000040: 43cd 8fbe 6982 083d 57bd 193d 078f b63d
00000050: 0cb2 b3bc 592c 6e3e 4a94 7b3e a2fc 993d
00000060: 0757 a23e 36fe 0f3d 8b35 003e 260f c03d
00000070: 8f3a bdbd 66d3 b9bd 75b0 b3bd 3ead 67be
00000080: afb8 14bd 1968 9fbd eeaf b7bd 10ae 033e
00000090: 0bfb 8f3d a185 bf3d 6a05 90bd 58ad 63bc
000000a0: 6908 14bb ab84 e93d b2ac dd3e de99 0a3e
000000b0: 40ed be3a ad5e 64be dc6d a5bd ed04 c5be
000000c0: 16c6 973d 3013 b43c b940 75bb caa2 753d
000000d0: d804 e73c 988b 43be c9b0 b33d 48a1 14bc
000000e0: 83c5 b23d 6846 6f3c 180a 40bc c745 063e
000000f0: a1ec 133e 5584 2cbd 840c 68bd 7131 e73d
00000100: eceb 43bd c327 a03d 0739 223e 5955 263e
00000110: 1e62 773d 40ec 8bbd dcc3 43bd 4203 6fbd
00000120: 3412 993c c351 f83d e022 f43e ab24 82bc
00000130: e68c 4fbc 82be 8c3e 2fda 313d 255d 13bc
00000140: 9333 b43e 3f23 88bd 52fe 1dbd 3635 9a3d
00000150: 0fda 063e 3d01 3b3d ee91 6c3d 2cc0 623e
00000160: fc85 d43c dc21 18bd 87d4 863e 7ebb bfbd
00000170: 031e 45bd fc72 943c 7c68 c3bd 00f9 cb39
00000180: d1a9 523d 4533 21bd 6dec 58bd f716 29bd
00000190: c08c bebb c08c 47bd 6162 333e 38fc 813d
000001a0: 3b34 41bd 5098 843d a49e 403d 2e6e 99bd
000001b0: 391a 513d 87dc 963d ba60 a6bd 40f7 57bd
000001c0: 2503 b03d aeda 773d 20d7 883c 9b3d 82be
000001d0: bd36 b23d 60b4 443c c175 f13d 4999 41be
000001e0: c349 d63d c64f 2d3d c6e0 733d 2b0d 98bd
000001f0: 2ea6 a73e dcf4 e03c b02b 19bc 8850 09be
00000200: cc8c 1e3f d797 93bf 3604 1a3f 591b fcbd
00000210: 56da 62bd e4d3 903c 6463 0dbd 1062 a8bd
00000220: c2e1 103f 53b3 e93e 8e35 8d3d a684 3c3d
00000230: daac 0a3d 640f eabc 456d 8dbd e066 84bb
00000240: 017c 73bf dd39 d23d 65c9 ed3c ffae 11bb
00000250: f448 a6bd 0332 123f 4684 053f 79b5 b7bc
00000260: dd03 2a3f 05f1 abbc d4e6 4b3e 336c 0abe
00000270: c204 b0be 526d 55bf 767a 98bd 8933 abbf
00000280: 6ca8 b5be 08fe 10bc f9cc 503e 7a37 cb3c
00000290: a4fc 13bd 945f ae3e 5580 043e 5fe2 923d
000002a0: 068a 70be e36b 9bbc da46 203f 9f1a debd
000002b0: 6045 7ebd dc5a 983f 6005 cabd 862c d5bf
000002c0: 1d70 ed3e 98ba b93c 03be 7dbf 3e57 ecbd
000002d0: a4fd c1bc 76ae 33bf 53af 043e 6945 49bd
000002e0: dc45 d03c 9811 3e3c bae9 2d3d eecf 9dbd
000002f0: 4c1d 9bbd 209a 96bd f017 cf3b 7493 d93d
00000300: bf71 13bd c6a5 fa3e 954b 0cbd 537a dbbc
00000310: 328e aabd ba1e d3bf 5b75 a7bf cbb8 d7bc
00000320: 4004 48bb 47f9 233b 31d3 2b3f 83aa 4c3e
00000330: 69b3 a3bd 4cb6 ffbd f50e abbf 55ee 69bd
00000340: 8617 263f 6150 cbbd 6622 663d 8c54 57bb
00000350: 2786 113e 9f2d 0abe 75b3 af3d 3e80 303f
00000360: f30d aabd 4f90 a03d 1239 263f 9423 11bf
00000370: 94be 0b3d 3603 85bd 84fa 8f3c d89f 3c3c
00000380: ea44 583c 033b 39bd 8300 ad3d 4c14 e93c
00000390: 933f 923d c461 8e3c ecd4 aa3d 0ff6 833e
000003a0: 7018 42bc dae0 4fbe d4ac c6bc fff5 8abd
000003b0: 86c4 85be f01b d53b 833b a2bd b4d7 c1be
000003c0: 7c9b d83c c75b afbd a0c7 9dbc 92c6 b1bf
000003d0: b867 123d 2901 9b3d 19d5 93be 6027 3fbe
000003e0: 652b 913c 6789 a23d d8b0 cb3c b2bb 69bd
000003f0: 24e9 02bf d5f6 a5bd c0ee cd3c 92ce 17bf

fc2.bias f4 [64]
0.21184035 0.11763861 -0.057577 -0.05856695 0.034629624 -0.10054845 0.039712906 -0.032296263
0.02558094 -0.05098904 -0.15040153 0.27884337 0.13352443 -0.092396796 0.08608872 -0.033010095
0.024612749 -0.011069283 0.26548576 0.018006286 -0.03215307 0.03032893 -0.016881552 -0.018238634
0.015562872 0.014803597 0.2578036 0.025372002 -0.0566325 -0.044224273 -0.07749725 -0.012240142
-0.010370977 0.20964785 -0.07893102 -0.04552105 0.06960505 -0.0072326954 -0.02128505 -0.06507191
-0.007681772 0.06477006 -0.06450579 0.17002256 -0.09010704 -0.098703206 -0.053793635 -0.10270427
-0.08997183 0.02407351 0.0010934306 -0.03885866 -0.016244834 -0.012947889 -0.060188655 0.070588194
-0.08104255 -0.0129324645 -0.053237464 -0.008160102 0.0068255663 0.029253384 0.02086214 -0.061098292
00000000: adec 583e 83ec f03d dcd5 6bbd e6e3 6fbd
00000010: cbd7 0d3d 59ec cdbd 00aa 223d 1649 04bd
00000020: 1f8f d13c e2d9 50bd dc02 1abe 8fc4 8e3e
00000030: a1ba 083e 883a bdbd 484f b03d 9835 07bd
00000040: ada0 c93c f05b 35bc c0ed 873e eb81 933c
00000050: f0b2 03bd 6074 f83c 2e4b 8abc 3069 95bc
00000060: 6bfb 7e3c c98a 723c d5fe 833e f2d8 cf3c
00000070: 7bf7 67bd 8324 35bd e1b6 9ebd e08a 48bc
00000080: 08eb 29bc edad 563e 96a6 a1bd 4874 3abd
00000090: 188d 8e3d 3f00 edbb fc5d aebc 6c44 85bd
000000a0: 60b7 fbbb 2aa6 843d 9d1b 84bd 651a 2e3e
000000b0: 0a8a b8bd e824 cabd b756 5cbd 9e56 d2bd
000000c0: 2743 b8bd cf35 c53c 7151 8f3a 422a 1fbd
000000d0: e313 85bc 6223 54bc 6188 76bd 8b90 903d
000000e0: a3f9 a5bd b0e2 53bc 870f 5abd f3b1 05bc
000000f0: 00a9 df3b cba4 ef3c 14e7 aa3c 3442 7abd

fc3.weight f4 [5, 64]
0.10118365 0.16365199 0.08593929 -0.038022567 0.09349474 -0.11577304 0.11696909 -0.02714442
0.023809118 -0.030995607 0.008165208 0.31040245 0.0341493 0.015361701 0.12002412 -0.1190584
0.025545105 0.06107876 0.29313773 0.019961493 0.040547952 -0.10449569 0.03480187 -0.11713356
0.08776526 -0.09311265 0.008088727 -0.011609885 -0.0471974 0.037939172 -0.05107388 -0.031580597
0.123093784 0.2968371 -0.03485112 -0.097161196 -0.011953989 -0.07989595 -0.0026777089 0.05431153
0.062530264 -0.08283063 -0.07185468 0.219369 -0.058523193 0.09659308 0.0068576336 -0.088488996
0.040856265 -0.03169412 0.03328987 0.040268403 0.0013165325 0.007374972 0.14554867 0.1501498
-0.08736199 0.0294459 0.058931634 -0.027942693 -0.08548571 0.048158973 0.010364667 0.10021728
0.17880945 0.13140933 0.060627982 -0.07888986 -0.0729455 -0.08186165 0.13891234 0.097286284
-0.07216933 0.11786865 0.02338699 0.24543643 0.06898391 -0.033979613 0.019926073 0.08888288
-0.10965158 0.045667488 0.26262864 -0.11329084 -0.03133422 -0.022248492 0.07191892 -0.045673802
0.08589397 0.10759911 -1.0300834 -0.00093229685 -0.017175257 -0.073506966 -0.102413565 0.06109123
0.0729993 0.27394664 0.046531692 -0.013818845 -0.5117248 0.08159715 0.08187355 0.018445417
0.01662086 -0.071228124 -0.025304228 0.2124252 0.0076212534 0.03863771 0.026355356 -0.051591754
-0.055084188 0.054132562 0.0170799 0.029473005 -0.091777354 -0.075346485 0.074674696 0.2046273
0.024806172 -0.12368813 0.086072475 -0.20504346 0.11176425 -0.051060066 0.025749832 0.070411995
0.1331894 -0.7646944 0.009159565 -0.027824521 -0.091930546 0.08982025 0.57525986 -0.040886864
-0.04787792 0.031954885 0.30270317 0.21732926 0.050513256 -0.027611775 -0.055934105 -0.011086106
-0.11008206 -0.01681423 0.21613012 -0.049164847 0.006088048 0.014205232 -0.03957507 0.054528877
0.03603467 0.044879854 0.002176432 0.039835792 -0.0056286156 0.036459375 0.081445664 -0.0630454
-0.059479088 0.2764329 0.06157188 0.075701274 -0.042147197 0.12799281 0.05299437 -0.114166185
0.00053711236 0.028341997 -0.0009418279 0.18251666 0.09750959 -0.058597043 0.03452304 0.11810686
0.047150996 -0.061114922 0.041048303 -0.10977115 -0.070175424 -0.119104624 -0.064589486 0.18876499
-0.10447903 -0.36378998 -0.10252829 0.3994668 0.04161772 0.025895119 -0.029014781 0.11469242
0.2734324 0.1455873 -0.023564175 0.0018293131 0.026239263 -0.035446968 0.043871906 -0.050190613
-0.07860702 0.100982055 -0.0012358336 0.30812502 0.19561255 0.105990514 0.003155556 0.024731666
0.061149724 0.013669983 0.24098791 -0.07325587 0.04646191 0.02761665 -0.012148338 -0.10730238
0.07931525 0.07655363 0.14475729 0.018441478 -0.12228309 0.003778365 -0.008419439 0.09716849
0.095483914 0.2366082 -0.12436853 -0.044008262 -0.24779981 -0.061170068 -0.08734879 0.032651857
0.036674753 -0.025008852 0.094128475 0.28347778 0.018998358 0.094392315 0.094820276 0.0131681
-0.051944688 0.05206251 0.08896993 0.007383224 -0.01244171 0.06134267 -0.1025314 0.15587702
0.018532291 -0.075532824 0.012621656 0.022486286 0.04235916 0.090668246 -0.04585688 0.04616116
00000000: 6039 cf3d 6394 273e f000 b03d 8dbd 1bbd
00000010: 2c7a bf3d 6a1a edbd 7e8d ef3d fa5d debc
00000020: 570b c33c 80ea fdbc 5dc7 053c 12ed 9e3e
00000030: 23e0 0b3d a5af 7b3c 35cf f53d e4d4 f3bd
00000040: f843 d13c b92d 7a3d 2616 963e 4986 a33c
00000050: 9c15 263d d601 d6bd 688c 0e3d b8e3 efbd
00000060: 46be b33d d8b1 bebd 9486 043c 6337 3ebc
00000070: 1052 41bd 1b66 1b3d d832 51bd a85a 01bd
00000080: 9818 fc3d 08fb 973e 0cc0 0ebd 73fc c6bd
00000090: aada 43bc 7da0 a3bd 807c 2fbb c475 5e3d
000000a0: de0f 803d 1ba3 a9bd 8c28 93bd 44a2 603e
000000b0: 04b6 6fbd 98d2 c53d 00b6 e03b b839 b5bd
000000c0: e658 273d b2d1 01bd f55a 083d 7bf0 243d
000000d0: 808f ac3a c0a9 f13b b60a 153e dfc0 193e
000000e0: d8ea b2bd 8738 f13c 4c62 713d 13e8 e4bc
000000f0: 2213 afbd 5842 453d 90d0 293c b83e cd3d
00000100: d319 373e 2b90 063e 0c55 783d 0291 a1bd
00000110: 7364 95bd 15a7 a7bd 093f 0e3e 083e c73d
00000120: 84cd 93bd 1e65 f13d 1396 bf3c b053 7b3e
00000130: 7047 8d3d 352e 0bbd 013c a33c 3a08 b63d
00000140: 0291 e0bd d50d 3b3d 4377 863e 0705 e8bd
00000150: 5058 00bd 7842 b6bc 3a4a 933d 7414 3bbd
00000160: 2ee9 af3d ec5c dc3d c6d9 83bf 6265 74ba
00000170: 20b3 8cbc d28a 96bd 34be d1bd cc3a 7a3d
00000180: a880 953d bc42 8c3e 0498 3e3d 7068 62bc
00000190: 6600 03bf 681c a73d 52ad a73d d81a 973c
000001a0: 7828 883c 0de0 91bd d04a cfbc fe85 593e
000001b0: b5bb f93b 9342 1e3d 30e7 d73c e051 53bd
000001c0: f59f 61bd 1bba 5d3d 25eb 8b3c 5f71 f13c
000001d0: c4f5 bbbd 424f 9abd 0cef 983d d289 513e
000001e0: 5036 cb3c 3450 fdbd c446 b03d eaf6 51be
000001f0: a8e4 e43d 5c24 51bd 50f1 d23c 2a34 903d
00000200: cd62 083e 03c3 43bf 0012 163c 40f0 e3bc
00000210: 1546 bcbd aef3 b73d 3b44 133f fc78 27bd
00000220: a31b 44bd 20e3 023d e9fb 9a3e 908b 5e3e
00000230: fde6 4e3d 1732 e2bc 291b 65bd 80a2 35bc
00000240: b472 e1bd ffbd 89bc 3751 5d3e 1461 49bd
00000250: 407e c73b 10bd 683c 7819 22bd ac59 5f3d
00000260: 1799 133d f0d3 373d 78a2 0e3b db2a 233d
00000270: 4070 b8bb 6d56 153d fccc a63d f21d 81bd
00000280: 58a0 73bd 9d88 8d3e cc32 7c3d 4509 9b3d
00000290: 8aa2 2cbd 8c10 033e a010 593d f6cf e9bd
000002a0: 00cd 0c3a 7a2d e83c 00e5 76ba a6e5 3a3e
000002b0: 1cb3 c73d 7403 70bd 0868 0d3d 02e2 f13d
000002c0: 6721 413d a453 7abd 4422 283d b2cf e0bd
000002d0: 22b8 8fbd 20ed f3bd 7e47 84bd 9c4b 413e
000002e0: 1af9 d5bd ae42 babe 5afa d1bd ea86 cc3e
000002f0: 5877 2a3d 0022 d43c 68b0 edbc dce3 ea3d
00000300: 55ff 8b3e d614 153e a809 c1bc 90c5 ef3a
00000310: b9f3 d63c d730 11bd 07b3 333d ac94 4dbd
00000320: b8fc a0bd aecf ce3d b2fb a1ba 90c2 9d3e
00000330: a84e 483e 8e11 d93d 72cd 4e3b 109a ca3c
00000340: 2278 7a3d 10f8 5f3c 89c5 763e 2c07 96bd
00000350: d84e 3e3d 503c e23c d309 47bc 5ac1 dbbd
00000360: 0970 a23d 26c8 9c3d 413b 143e 9512 973c
00000370: 8f6f fabd 729e 773b b0f1 09bc 4600 c73d
00000380: 128d c33d 6c49 723e eeb4 febd 0242 34bd
00000390: 3cbf 7dbe 778d 7abd ece3 b2bd f4bd 053d
000003a0: 4438 163d 5ddf ccbc 6ec6 c03d 0024 913e
000003b0: 72a2 9b3c c250 c13d 2231 c23d 04bf 573c
000003c0: f4c3 54bd 803f 553d de35 b63d f9ee f13b
000003d0: 50d8 4bbc 7442 7b3d fcfb d1bd 3a9e 1f3e
000003e0: 08d1 973c f4b0 9abd 10cb 4e3c 2935 b83c
000003f0: cc80 2d3d 46b0 b93d 6cd4 3bbd 7c13 3d3d

fc3.bias f4 [5]
0.2931523 0.31004477 0.18091443 0.36468214 0.37548187
00000000: 0f18 963e 30be 9e3e a241 393e 9eb7 ba3e
00000010: 293f c03e
